…
learning rate schedule.See more details at https://pytorch.org/docs/stable/optim.html#how-to-adjust-learning-rate
  "https://pytorch.org/docs/stable/optim.html#how-to-adjust-learning-rate", UserWarning)
Namespace(anneal_iter=40000, anneal_rate=0.9, batch_size=32, beta=0.0, clip_norm=50.0, depthG=3, depthT=20, epoch=20, hidden_size=450, kl_anneal_iter=2000, latent_size=56, load_epoch=0, lr=0.001, max_beta=1.0, print_iter=50, save_dir='vae_model', save_iter=5000, step_beta=0.002, train='zinc-processed/', vocab='../data/zinc/vocab.txt', warmup=40000)
JTNNVAE(
  (jtnn): JTNNEncoder(
    (embedding): Embedding(780, 450)
    (outputNN): Sequential(
      (0): Linear(in_features=900, out_features=450, bias=True)
      (1): ReLU()
    )
    (GRU): GraphGRU(
      (W_z): Linear(in_features=900, out_features=450, bias=True)
      (W_r): Linear(in_features=450, out_features=450, bias=False)
      (U_r): Linear(in_features=450, out_features=450, bias=True)
      (W_h): Linear(in_features=900, out_features=450, bias=True)
    )
  )
  (decoder): JTNNDecoder(
    (embedding): Embedding(780, 450)
    (W_z): Linear(in_features=900, out_features=450, bias=True)
    (U_r): Linear(in_features=450, out_features=450, bias=False)
    (W_r): Linear(in_features=450, out_features=450, bias=True)
    (W_h): Linear(in_features=900, out_features=450, bias=True)
    (W): Linear(in_features=478, out_features=450, bias=True)
    (U): Linear(in_features=478, out_features=450, bias=True)
    (U_i): Linear(in_features=900, out_features=450, bias=True)
    (W_o): Linear(in_features=450, out_features=780, bias=True)
    (U_o): Linear(in_features=450, out_features=1, bias=True)
    (pred_loss): CrossEntropyLoss()
    (stop_loss): BCEWithLogitsLoss()
  )
  (jtmpn): JTMPN(
    (W_i): Linear(in_features=40, out_features=450, bias=False)
    (W_h): Linear(in_features=450, out_features=450, bias=False)
    (W_o): Linear(in_features=485, out_features=450, bias=True)
  )
  (mpn): MPN(
    (W_i): Linear(in_features=50, out_features=450, bias=False)
    (W_h): Linear(in_features=450, out_features=450, bias=False)
    (W_o): Linear(in_features=489, out_features=450, bias=True)
  )
  (A_assm): Linear(in_features=28, out_features=450, bias=False)
  (assm_loss): CrossEntropyLoss()
  (T_mean): Linear(in_features=450, out_features=28, bias=True)
  (T_var): Linear(in_features=450, out_features=28, bias=True)
  (G_mean): Linear(in_features=450, out_features=28, bias=True)
  (G_var): Linear(in_features=450, out_features=28, bias=True)
)
Model #Params: 5676K
/home/alex/miniconda2/envs/jtnn_env/lib/python2.7/site-packages/torch/nn/functional.py:1350: UserWarning: nn.functional.sigmoid is deprecated. Use torch.sigmoid instead.
  warnings.warn("nn.functional.sigmoid is deprecated. Use torch.sigmoid instead.")
/home/alex/miniconda2/envs/jtnn_env/lib/python2.7/site-packages/torch/nn/functional.py:1339: UserWarning: nn.functional.tanh is deprecated. Use torch.tanh instead.
…
